checkpoint_dir/conv2_weights_226000.npz (npy, 409680 bytes, 1 tensors)

array f4 [5, 5, 64, 64]
0	0xbda6b96b	-0.081408344
1	0xbbd522df	-0.006504401
2	0xbb166658	-0.0022949185
3	0x3ce676ed	0.02813288
4	0xbd01567c	-0.03157662
5	0xbdbd723f	-0.09250306
6	0x3dd3cc27	0.10341673
7	0x3c89ab31	0.016805263
8	0x3d71801d	0.05896007
9	0xbd23e202	-0.04001046
10	0x3d2f8d4c	0.04285936
11	0x3cb2dacf	0.021832852
12	0xba0919ff	-0.0005230009
13	0xbcb58734	-0.022159196
14	0x3d865f2a	0.0656112
15	0xbd029471	-0.031879846
16	0x3cfab319	0.030602979
17	0xbd04eccb	-0.032452386
18	0x3dce897a	0.10084815
19	0xbd92c59d	-0.07166598
20	0xbcb94288	-0.022614732
21	0xbc984df0	-0.018591851
22	0x3e002e9e	0.12517783
23	0xbc11d036	-0.008899739
24	0x3d8ba150	0.06817877
25	0xbc46dd64	-0.012137745
26	0xbc94067d	-0.0180695
27	0xbd77b3a7	-0.060474064
28	0xbd05f935	-0.032708365
29	0xbd58d50e	-0.05293756
30	0xbd0f317e	-0.03495931
31	0xbd3b6c10	-0.045757353
32	0x3dfc7031	0.12326086
33	0x3db59056	0.088654205
34	0xbd28e31a	-0.041232206
35	0x3d5a081c	0.05323039
36	0xbd62b82d	-0.055351425
37	0xbd9fcf4b	-0.0780321
38	0xbc2efdb7	-0.0106806075
39	0x3c1eeea2	0.009700449
40	0xbdd5d141	-0.10440303
41	0xbd26a4e5	-0.0406846
42	0x3d542788	0.051795512
43	0x3d007be6	0.03136816
44	0x3dabea8d	0.083943464
45	0x3cc7f38b	0.024408123
46	0x3ce2076d	0.027591432
47	0xbd80b9fb	-0.06285473
48	0xbb25348a	-0.0025208318
49	0x3c16ef49	0.009212323
50	0xbca32bb4	-0.0199183
51	0xbca4bbff	-0.020109175
52	0xbcee0e9d	-0.029059703
53	0x3bf1c14f	0.0073777805
54	0x3b87999e	0.0041381856
55	0xbcac243d	-0.021013374
56	0x3d1cd4d7	0.038288917
57	0x3d077a67	0.033075716
58	0x3dbd2b6e	0.09236799
59	0x3c1ae080	0.009452939
60	0x3d9e53d9	0.077308364
61	0xbcb1e860	-0.02171725
62	0x3ceb243c	0.028703801
63	0x3c74030d	0.0148933055
64	0xbcae2c78	-0.021261439
65	0xbda4aba6	-0.08040552
66	0xbc5a276c	-0.013315063
67	0x3d4876c3	0.048941385
68	0xbcfc5449	-0.030801909
69	0xbd7f0058	-0.062256187
70	0x3ce5d03d	0.028053397
71	0x3d7a935e	0.061175697
72	0x3cd610cb	0.026131054
73	0x3ceebd7c	0.029143088
74	0xbc028fa3	-0.007968816
75	0xbd1b2c49	-0.03788403
76	0xbca78ff5	-0.020454386
77	0xbcfa8af5	-0.030583838
78	0x3d250a94	0.04029329
79	0x3bd2e523	0.0064360066
80	0x3da7808a	0.08178814
81	0xbdabc188	-0.083865225
82	0xbce45b8d	-0.027875686
83	0xbdb74ce6	-0.08950214
84	0x3cffc28d	0.031220699
85	0x3d2d54ea	0.04231731
86	0x3d09456f	0.033513483
87	0xbd4e7e60	-0.05041349
88	0x3baa31f8	0.005193945
89	0xbc17d15d	-0.009266225
90	0x3d3a66df	0.04550826
91	0x3d95fe4b	0.07323893
92	0x3d1a192b	0.03762166
93	0xbc505382	-0.012715222
94	0x3d325231	0.043535415
95	0x39f3b6ef	0.00046484868
96	0x3d75063d	0.059820402
97	0xbdc963d1	-0.098334916
98	0xbbde0e95	-0.0067766407
99	0x3ccfa379	0.025346505
100	0x3c7a3e6f	0.015273674
101	0x3da492cb	0.08035811
102	0x3d9cb681	0.07651997
103	0xbd65a8da	-0.056069233
104	0x3c1b6260	0.009483904
105	0x3ccd71fa	0.025078762
106	0xbd41b898	-0.047295183
107	0xbd38f08c	-0.04515128
108	0xbd2bf3be	-0.041980498
109	0xbd2ea45d	-0.042637218
110	0x3c4295a4	0.011876497
111	0xbcee8098	-0.029114053
112	0xbd373ad1	-0.044733826
113	0xbda5519a	-0.08072205
114	0x3d0add70	0.033902586
115	0x3c9da2ea	0.019242723
116	0x3cbd7887	0.023128761
117	0xbd0088c8	-0.031380445
118	0x3d42c6c0	0.047552824
119	0xbd1fd161	-0.03901804
120	0xba55b3f9	-0.0008152123
121	0x3bec6e82	0.007215322
122	0x3c09330d	0.008373988
123	0xbd868213	-0.065677784
124	0x3e1935db	0.1496195
125	0xbc882d16	-0.016623061
126	0xbc86d770	-0.01646015
127	0xbd3b8ecf	-0.04579049
128	0xbd55cd9b	-0.052198034
129	0x3d1d4da2	0.038404115
130	0x3dae090b	0.084978186
131	0xbd8c801f	-0.06860375
132	0xbd8d13a7	-0.06888514
133	0x3d4fb789	0.050712142
134	0x3d739511	0.059468333
135	0x3d52593d	0.051354636
136	0xbc82672c	-0.015918337
137	0x3e0e1825	0.13876398
138	0x3d40049f	0.046879407
139	0xbd89c194	-0.06726375
140	0xbb747d4d	-0.003730613
141	0x3d07fce7	0.03320017
142	0x3d63fd82	0.055661686
143	0xbc8e4288	-0.017365709
144	0xbc95fbc3	-0.018308526
145	0x3dc5e5fe	0.09663008
146	0xbd61e201	-0.055147175
147	0x3d5cd05d	0.05390965
148	0x3a94cce2	0.0011352564
149	0x3d141d78	0.036160916
150	0x3de1b8a9	0.11021549
151	0xbd081f7e	-0.03323316
152	0x3dfddeeb	0.12396034
153	0x3dd3483a	0.103165105
154	0xbd8e378f	-0.06944191
155	0x3cb8a4e7	0.022539569
156	0x3d1c784e	0.03820067
157	0xbb441268	-0.0029918198
158	0x3dc1a67b	0.09455582
159	0x3d0d7e06	0.034544013
160	0x3d4308d5	0.047615845
161	0x3d25a71b	0.040442567
162	0xbd93edd3	-0.07223096
163	0x3d530881	0.05152178
164	0xbd8545be	-0.06507443
165	0x3e2f97c9	0.17147745
166	0x3d9af317	0.07565897
167	0xbdd3aab7	-0.10335296
168	0xbd81ddb1	-0.063411124
169	0x3d41c7de	0.04730975
170	0xbbf1cfae	-0.0073794937
171	0xbca63d0b	-0.02029278
172	0xbdcff4e3	-0.1015413
173	0x3deb57af	0.11491334
174	0xbc9ea145	-0.019364009
175	0xbd417aa8	-0.047236115
176	0x3d6c1364	0.05763568
177	0xbc172ed1	-0.0092274705
178	0xbd4bd2e3	-0.049761664
179	0x3c74754b	0.014920543
180	0xbd78d20b	-0.060747188
181	0xbcc7999a	-0.024365235
182	0xbcab8056	-0.020935219
183	0x3d4aa19b	0.049470525
184	0x3cedf411	0.029047044
185	0x3d98cd04	0.074609786
186	0x3c3ef4f6	0.011655083
187	0x3b159102	0.0022822027
188	0xbdab4f98	-0.08364791
189	0xbcfe8595	-0.031069556
190	0x3d8bafc1	0.06820632
191	0xbcc8dcbb	-0.024519315
192	0x3e020b42	0.12699607
193	0x3b6fa3e1	0.0036566185
194	0xbd08b577	-0.033376183
195	0xbb52e0b9	-0.0032177402
196	0x3dfa8a9f	0.12233471
197	0x3b3b9855	0.0028624733
198	0x3cd195c5	0.025584111
199	0xbd3da2a2	-0.046297677
200	0x3d174ff1	0.036941472
201	0x3c813476	0.015772086
202	0x3d373fd8	0.04473862
203	0x3d392d1d	0.04520904
204	0xbd1b50c2	-0.037918814
205	0xbb5a0c38	-0.0033271443
206	0x3c12c34c	0.008957695
207	0x3d5714ab	0.052509945
208	0x3cc4fb03	0.024045473
209	0x3c51ed42	0.012812914
210	0xbd3373ed	-0.043811727
211	0x3d6004d0	0.05469209
212	0xbd8876ea	-0.06663306
213	0x3b9391d4	0.004503468
214	0x3ded97c2	0.11601211
215	0xbcd99a87	-0.026562942
216	0xbcb8d4fb	-0.022562495
217	0x3d1b222d	0.03787439
218	0xbdc11fbe	-0.094298825
219	0x3e0329ab	0.12808864
220	0x3d99e92e	0.075151786
221	0x3d165977	0.036706414
222	0x3d9b1291	0.07571901
223	0x3cac355b	0.021021536
224	0xbd3ab789	-0.04558519
225	0xbd5e1006	-0.0542145
226	0xbd296211	-0.04135329
227	0x3c4ee5a1	0.01262799
228	0x3d1b59fe	0.03792762
229	0x3cabcdec	0.020972215
230	0xbc1777df	-0.009244888
231	0xbb71fd69	-0.0036924726
232	0xbd9c92ef	-0.07645213
233	0xbd8553a7	-0.06510096
234	0xbc81cad7	-0.015843792
235	0x3d867ab5	0.06566373
236	0x3e025236	0.12726673
237	0xbd3e5853	-0.04647095
238	0x3ce98622	0.028506342
239	0x3d255adc	0.040369853
240	0xbd850577	-0.06495183
241	0x3dbea600	0.09309006
242	0x3d27e169	0.040986452
243	0x3cec708a	0.028862257
244	0x3d84e095	0.06488148
245	0xbbbc099c	-0.00573845
246	0x3c06477d	0.008195755
247	0x3b2d8602	0.002647758
248	0x3d32d055	0.043655712
249	0x3c7bc85f	0.015367596
250	0x3b5c05ca	0.0033572786
251	0x3d45fb10	0.048335135
252	0x3d370a28	0.04468742
253	0x3dc1bb21	0.0945952
254	0xbd23507b	-0.039871674
255	0xbda6f139	-0.08151478
