checkpoint_dir/conv1_weights_227000.npz (npy, 6480 bytes, 1 tensors)

array f4 [5, 5, 1, 64]
000000 cb c8 7f bc 5b f2 39 be 6f 60 0d be 1b 6c f5 3e
       -0.015611838 -0.18158858 -0.13806318 0.4793404
000010 44 a7 89 be 64 ad 4c 3e 3f 51 d9 bd 8d 20 bf be
       -0.26885426 0.19988018 -0.106111996 -0.37329522
000020 4a 4d 8e 3e 1d 29 b7 be 41 a3 cc bd 34 87 a0 3e
       0.27793342 -0.35773554 -0.09992076 0.31353152
000030 b3 4e 5d be f4 03 0e be 6f b9 1a bf f4 af 0a 3f
       -0.21612053 -0.13868695 -0.604392 0.54174733
000040 8d a3 57 3e c5 41 96 3c ce 9d 2b 3e 31 55 f2 3c
       0.21058483 0.018341908 0.16759416 0.029581638
000050 7f 3e 4b 3e 30 23 d3 be f2 a1 8b bd 91 d2 a7 3c
       0.19848059 -0.41237783 -0.06817998 0.020486148
000060 5b b9 0c 3e 7e 84 69 be 56 d4 0a be 24 8c 0a be
       0.13742582 -0.22804448 -0.13557562 -0.13530022
000070 68 b4 f1 3e ad ab db 3e be de 41 3e 7c b8 11 3d
       0.47207952 0.42904416 0.18932626 0.03557633
000080 75 f3 40 3d dd 3c 42 bd c6 23 be 3e bd 96 98 3e
       0.04710718 -0.047421325 0.37136668 0.29802504
000090 f1 22 5b be 5c ca c9 3e f4 ec a4 be 6d be d1 be
       -0.21400048 0.394122 -0.3221203 -0.40965596
0000a0 9d 98 ad be 70 21 1e 3e 2a 1f c6 bd fc 96 89 be
       -0.33905497 0.15442443 -0.09673913 -0.26873004
0000b0 3e 5c 24 bd 82 99 94 be 7e 47 d7 bd 6c 2f 37 bf
       -0.04012703 -0.29023367 -0.10511683 -0.71556735
0000c0 f6 e8 ac 3d 42 4d c6 bd 44 0a dc bd 74 90 c1 3c
       0.08442871 -0.096827045 -0.107441455 0.02362845
0000d0 77 61 90 3e 5a 21 9d 3e f0 15 a2 bd 30 76 22 be
       0.2819936 0.30689508 -0.079143405 -0.15865397
0000e0 b2 f1 25 bf c5 fc 56 3e fa 72 f6 be 20 63 28 bd
       -0.6482192 0.20994861 -0.48134595 -0.041110158
0000f0 77 b0 0a 3e 30 ab aa be 13 e4 c1 3e ae 92 d1 3e
       0.13543878 -0.3333373 0.3786932 0.4093222
000100 18 30 b2 bd 13 fc 98 be 80 a1 a6 bd d7 e8 81 3e
       -0.087005794 -0.29879817 -0.081362724 0.25372955
000110 dc a2 ad bd 9d 90 46 3e 89 58 b8 3d ba 83 c0 be
       -0.084783286 0.19391103 0.09001262 -0.376005
000120 da 52 02 3f 9f 90 33 be e6 a2 76 bc 15 f4 22 3f
       0.5090767 -0.17535637 -0.015053486 0.6365369
000130 54 17 08 bf ea 8c c5 3c 10 71 50 bf 6c cb 33 3f
       -0.53160596 0.024115045 -0.8142252 0.7023227
000140 d1 05 20 3f 37 c6 15 3e a7 fe c7 3e 60 fa fa be
       0.62508875 0.14626394 0.39061472 -0.49019146
000150 35 e2 e1 be e8 c4 cb be ca 76 43 be 8f 1b 00 3e
       -0.44117895 -0.39798665 -0.19088283 0.12510513
000160 89 a2 9d 3d 2a 49 ce bd c3 a7 40 bd d2 99 28 be
       0.07697017 -0.10072549 -0.04703499 -0.16464928
000170 c3 a2 1a 3f 37 f5 af 3e 3c 97 a6 3e 46 ba 42 be
       0.60404605 0.34366772 0.32537258 -0.1901637
000180 34 fa 55 3d 4a 6b 45 3e 19 5b 0e 3f a5 eb 1d 3f
       0.052240565 0.19279209 0.55607754 0.6168769
000190 48 f8 2b bf ff 61 88 3e 6b f8 e3 3d 9d 5e fa be
       -0.6717572 0.26637265 0.11131366 -0.4890031
0001a0 a9 6c d6 be 02 60 48 be 4b e7 98 be 93 40 41 be
       -0.41879776 -0.19567874 -0.29863963 -0.1887229
0001b0 a6 1e 90 bd 69 bb 4d be b0 a4 75 bd 75 84 82 bf
       -0.07037096 -0.20091023 -0.05997151 -1.0196673
0001c0 66 66 5f 3d 64 f3 35 be f0 f8 0a bf 29 e2 46 3e
       0.054541014 -0.17768627 -0.542861 0.19422211
0001d0 5f e7 18 3f 23 f7 f9 bd d5 8c 77 be 85 75 84 bd
       0.59728044 -0.12205341 -0.24174817 -0.064677276
0001e0 9d b4 2d bf 36 95 73 3e 35 dd 27 bf b4 5e 5c 3e
       -0.6785372 0.23787388 -0.6557191 0.21520501
0001f0 2b d3 47 3e 07 e2 e4 be 45 f4 82 3e 9c a5 01 bd
       0.19514148 -0.44703695 0.25576988 -0.031652078
000200 4c 60 1f 3d 45 3e 85 be e5 7d ca bd 74 7c 36 be
       0.038910195 -0.2602407 -0.09887294 -0.17820913
000210 c9 44 3f 3e e5 5b be 3b dd 8c a1 3e f0 e2 d5 be
       0.18678583 0.0058092945 0.31552783 -0.41774702
000220 50 40 ce 3e 03 74 69 be 01 0f 7f bd fe 50 15 3f
       0.40283442 -0.22798161 -0.06227017 0.5832671
000230 cf 74 d1 be 95 04 13 3c eb 14 64 bf dd d2 11 be
       -0.4090943 0.00897326 -0.8909442 -0.14240594
000240 66 a6 02 3f ac 40 b7 3e 03 10 e1 3e 68 da c5 be
       0.51035154 0.35791528 0.43957528 -0.38643193
000250 4a bb 69 be f8 1d 95 be fd 77 92 be 84 5d 22 3e
       -0.22825351 -0.29124427 -0.2860717 0.15855986
000260 67 09 8c 3a 5c bd d5 3d 3e a6 8a 3e e6 58 f5 3c
       0.0010683954 0.10436508 0.27079958 0.029949617
000270 e5 d9 f4 3e 6b 03 47 be 99 7b 8f 3e 54 48 e7 be
       0.4782249 -0.19434898 0.28023985 -0.4517237
000280 eb 8f 74 bd 1f 40 26 3f b8 e6 1a 3f cb a1 11 3f
       -0.059707563 0.6494159 0.605083 0.568875
000290 0b 45 5a bf 5f 3a 8a bd 3e dc 16 3f 52 8c f8 be
       -0.852616 -0.06749415 0.5892981 -0.48544556
0002a0 fe 81 ef bd ec 70 ce be 1a 96 35 be 69 bd 1f be
       -0.11694716 -0.40320528 -0.1773304 -0.15599598
0002b0 f2 78 39 3d 37 2b 2e 3e 8d 22 10 be 57 5d 80 bf
       0.045281358 0.17008673 -0.1407568 -1.0028485
0002c0 50 52 61 be 13 67 ad be b0 b5 51 be 2d 87 44 be
       -0.22004056 -0.33867702 -0.20479465 -0.1919219
0002d0 82 85 09 3f 7b 41 d8 be 84 97 e5 be 43 ab e3 bd
       0.5371934 -0.42237458 -0.4484216 -0.1111665
0002e0 1a 9a 03 bf de 03 97 3e e5 b1 58 bf 0b ff ab 3e
       -0.51407015 0.29495138 -0.84646446 0.3359302
0002f0 3e 18 8e 3e be eb a8 be 76 69 e5 bd 5d a4 28 bf
       0.2775287 -0.32992357 -0.11201756 -0.658758
000300 4b 5a 44 3e 1b ec ac be 02 a1 30 3e a0 67 99 be
       0.19175069 -0.33773884 0.1724892 -0.29961872
000310 ec 61 89 3e 12 fc 2e be f9 9e 02 3f ab 5d d9 be
       0.2683252 -0.17088345 0.51023823 -0.42454275
000320 a6 14 00 3d ef 50 81 be e9 d3 d8 bd 05 a9 da 3e
       0.031269692 -0.2525706 -0.10587294 0.42707077
000330 ec bb 11 be a1 a8 fa 3d bd d4 3e bf 56 7c f2 be
       -0.14231843 0.12239195 -0.7454336 -0.47360486
000340 5f de d5 bd a5 47 af 3e d5 02 d3 3e 6b 77 df 3e
       -0.104428045 0.34234348 0.41213098 0.43645796
000350 a5 ee a4 3e 8d cc b3 bd 34 e5 a8 be a6 d9 59 bc
       0.3221332 -0.08779249 -0.32987368 -0.01329652
000360 8a be a3 bd 73 5d 86 3e 39 b8 81 3c 74 0e a6 3e
       -0.07995327 0.2624317 0.015834915 0.32432902
000370 8a f6 ec 3e 7f b1 13 bf 02 73 b1 bb 4f 1b f7 be
       0.46281844 -0.5769271 -0.0054153213 -0.48263022
000380 ff ae 19 be 18 d9 56 3f 5c 36 18 3f 6a 0f 9e 3e
       -0.15008162 0.8392501 0.59457946 0.30871135
000390 81 3a 5b bf 32 89 ce bd 27 4f 92 3c b0 7e ef be
       -0.85636145 -0.10084762 0.017860008 -0.46776342
0003a0 c5 bb ad 3e 56 67 39 bd 2d ea 0b 3a 06 7b 4d be
       0.3393232 -0.045264564 0.0005337324 -0.20066461
0003b0 f8 a3 06 bc c8 ae 88 3e 67 13 b1 bc 45 f5 4c bf
       -0.008217804 0.26695848 -0.021615697 -0.8006175
0003c0 5e 2e 86 be 0b 58 65 be 45 f6 26 3f 33 e9 c3 be
       -0.2620725 -0.22396867 0.6521953 -0.38263854
0003d0 0b 71 f5 3e 55 d8 d4 bd f7 fc d0 be 86 38 7b be
       0.47937807 -0.103928246 -0.40817997 -0.2453328
0003e0 d6 76 d5 be d5 dc 3e 3e 5d ad 5d bf 17 d8 62 3d
       -0.41692227 0.18638928 -0.86592656 0.05538186
0003f0 64 e9 2c 3e 63 3b 37 be 1b 5c 08 be 4d b3 09 be
       0.16885906 -0.17893748 -0.13316385 -0.13447304
