checkpoint_dir/conv1_weights_990000.npz (npy, 19280 bytes, 1 tensors)

array f4 [5, 5, 3, 64]
000000 31 c3 a8 bc 8d 36 65 bd 87 f3 90 bd a9 8f 8a bd
       -0.020600887 -0.055960227 -0.07077699 -0.06765682
000010 50 19 86 3d 5b 77 70 3c 33 5e a2 3d 8b cd 9e 3d
       0.06547797 0.014676894 0.07928123 0.07754048
000020 e6 0b 5e bd f3 6f 89 bc ec 4d 00 3e ea f8 9a ba
       -0.054210566 -0.016777014 0.12529725 -0.001182345
000030 2f b9 83 3d 02 ee 6a bd e2 70 b9 ba d3 89 b6 bb
       0.06431805 -0.05735589 -0.0014148022 -0.005570629
000040 cf 19 b0 bd 32 6d b2 3c e7 8e 0f bd 9c 52 89 bd
       -0.085986726 0.021780584 -0.03504839 -0.067052096
000050 c0 84 fa 3c 9d af bb 3d 53 3c 1a 3e 1c 9d 4e bd
       0.030580878 0.09164355 0.15062074 -0.0504428
000060 e4 f9 5f 3b a4 d7 83 bc f0 d8 91 bd 96 9a 0d be
       0.0034176046 -0.016094036 -0.07121456 -0.13828501
000070 84 3c 84 3b 3e 63 86 bd 07 75 97 3c 46 cc 66 3d
       0.0040355343 -0.06561898 0.01848842 0.056347154
000080 53 b6 1e 3e b8 f5 32 3d ed c9 0c bd 92 63 a5 3c
       0.15499239 0.043691367 -0.03437226 0.02018908
000090 31 89 a4 bd 81 45 c4 3b 26 cd e6 3c 4b 3b 14 3e
       -0.0803398 0.005989731 0.028173994 0.14475743
0000a0 12 6d 8c 3c 87 d1 c9 3d 0d f5 83 bd b1 57 88 bd
       0.017141853 0.09854417 -0.06443224 -0.06657351
0000b0 9b 4a 5a be 4d 45 cf bd b3 33 32 bd 3c 3d 35 bd
       -0.21317522 -0.1012064 -0.043506335 -0.04424785
0000c0 e1 d6 c8 3c 1b eb 44 3c 49 51 54 bd fd 59 c0 bd
       0.024516525 0.012018944 -0.051835332 -0.09392164
0000d0 89 d7 92 bd e6 39 06 be 17 0b 1a bd 8f a3 39 bd
       -0.07170016 -0.13108024 -0.037608232 -0.045321997
0000e0 83 65 a1 3d 2f d0 81 3d e2 b6 ab bd 04 0c 17 3d
       0.0788069 0.06338536 -0.083844915 0.036876693
0000f0 27 2e e2 3d 5c d4 06 3e 0e 95 06 bd e1 06 54 bd
       0.11043959 0.13166946 -0.032856993 -0.051764373
000100 92 48 26 be e4 7d 57 3c ed 6b 64 bd ef cf 6f bd
       -0.16238621 0.013152573 -0.05576699 -0.05854791
000110 12 d3 d9 3d b7 51 69 3d 28 18 02 3e cf 4e 58 bd
       0.106359616 0.056962695 0.12704527 -0.052809533
000120 20 1c 08 3e d7 23 95 bd cf cc cb bd aa a6 2c bd
       0.13291979 -0.072822265 -0.099511735 -0.04215113
000130 f4 6a 81 bd 94 a8 2d bd bd c2 2c 3d 58 7c 91 bc
       -0.06319228 -0.042397097 0.042177904 -0.017759487
000140 8e b3 48 bd 8c 21 71 3d b6 64 3e bd 3f 96 b8 3c
       -0.04899936 0.058869883 -0.046482764 0.02253258
000150 b6 61 39 bc d2 8a 6a bd 6f bf 3f 3e 9a 62 fd bd
       -0.0113148 -0.057261296 0.1872537 -0.123723224
000160 35 cd a4 3d 86 f3 c7 3b 56 4d 1a 3d 4a d3 bd bd
       0.08046953 0.0061020283 0.03767141 -0.09268816
000170 0e de 44 bd e3 85 11 3e b8 94 a4 bd eb f4 53 3d
       -0.04806333 0.1421123 -0.08036178 0.051747244
000180 2b 2e 89 bc 49 bf 4b bb 02 ba d1 3d 31 69 11 3d
       -0.016745647 -0.0031089357 0.10240556 0.03550071
000190 e2 a0 8b bc 4f ba 9d bc d9 fa 73 bd 83 c3 6e bc
       -0.017044488 -0.019253878 -0.0595654 -0.014572981
0001a0 74 5f 51 bd 6f 31 ae 3d d2 86 72 3d de f2 c0 bd
       -0.05111642 0.085055225 0.059210606 -0.09421323
0001b0 27 f5 17 be 6c b9 4f bc 01 c5 2f 3c 1e 5c 81 bd
       -0.14839612 -0.012678485 0.010728122 -0.06316398
0001c0 90 ab 9d 3c 67 df 85 3d f9 48 4d bb 2c 02 aa 3d
       0.019246846 0.06536751 -0.0031324013 0.083011955
0001d0 4a fd 79 be ae da a5 bc 78 ca f5 3b ec 0f fc 3c
       -0.24413028 -0.020245876 0.007500943 0.03076931
0001e0 22 58 2f bd 5f e1 1c 3e f9 9b a8 3c 77 6c c3 3d
       -0.04280866 0.15320347 0.020582186 0.095421724
0001f0 39 e4 b9 3d 02 84 d5 3b 08 37 73 bd 61 50 7b bc
       0.09076733 0.0065159807 -0.059378654 -0.015338988
000200 5e 47 a4 bc cd d2 96 bd 43 e3 6a 3c 02 54 0f be
       -0.020053562 -0.07364426 0.01433641 -0.1399689
000210 45 bf 81 3d 4e 60 d2 3c 76 17 87 3d 25 3e 15 3d
       0.0633531 0.025680687 0.06596272 0.03643622
000220 d4 9a 18 bd df 55 2a bd 39 cd 21 3c f6 d7 de bd
       -0.03725703 -0.0415858 0.009875589 -0.10881035
000230 b0 51 f0 3d 31 af d9 3a 81 20 00 3d 7b 13 6c 3d
       0.11734331 0.0016607997 0.031281 0.057635766
000240 db 3a c0 3c 4b e4 eb bd 82 e8 64 bd 97 ec 05 bc
       0.023465564 -0.11518153 -0.0558858 -0.008174083
000250 8f b7 53 bd 83 19 21 3d 7d ae b1 3d ae e1 c9 bd
       -0.051688727 0.03933097 0.08675859 -0.09857498
000260 73 52 e1 3d 8e 08 86 3d 19 f5 a4 3c 20 ec 51 bd
       0.11002054 0.065446004 0.020136403 -0.051250577
000270 76 03 f1 bb d9 f5 d3 3d 5b bc a2 bc 01 52 30 3d
       -0.007355149 0.10349626 -0.019865206 0.043046955
000280 93 d8 5a bc 05 27 2a 3e 8f ff 58 3d a7 c3 c8 bc
       -0.013357299 0.16616447 0.052978095 -0.024507357
000290 99 3d b9 bc 0f 5b 5c bd e6 33 f2 3c a5 89 68 bd
       -0.02261238 -0.053797778 0.029565763 -0.056771893
0002a0 e8 38 40 bd b1 65 a0 bc 97 ae 45 3c ff eb e0 bd
       -0.04692927 -0.01957974 0.012065551 -0.10982513
0002b0 16 95 01 be 44 37 31 bd 7e 5d d1 bc 99 77 5e bd
       -0.12654528 -0.043265596 -0.025557276 -0.054313276
0002c0 cf 16 7d bd 44 07 50 bd cc dd bb bd 6b 66 68 bd
       -0.06178933 -0.05078818 -0.09173164 -0.0567383
0002d0 eb 7c b8 bd 32 51 98 3c 38 39 8a 3c 09 ee 97 bc
       -0.09008201 0.018593404 0.016872987 -0.018546121
0002e0 a7 6f e6 bc bc f9 b9 3d 34 35 55 3d e6 0c 01 3d
       -0.028129412 0.09080836 0.05205269 0.03150644
0002f0 cf 6d 54 3e b5 4b 3e bc 7b 35 9c bc a2 7b f7 bc
       0.20745014 -0.01161473 -0.01906847 -0.03021032
000300 77 b2 b8 bd 3d a3 70 3d de 87 90 3d b7 cb 0b bd
       -0.090184145 0.058749426 0.070571646 -0.034129824
000310 cf ff be bc ed b7 cd bd 61 9f 1f 3e 60 53 2f bc
       -0.023315338 -0.10044847 0.15588142 -0.0107010305
000320 a3 57 b6 bd a4 64 fc bc fb 35 4b 3e a0 52 90 bd
       -0.08903434 -0.030809708 0.1984481 -0.070470095
000330 5f dc e7 bd e4 fa d5 3d de 4f 59 bd df 25 82 3d
       -0.11321329 0.10448244 -0.053054683 0.063548796
000340 7c 97 fe 3c 46 a8 ef 3d 6e 87 39 3d 5c a2 d3 3d
       0.031078093 0.117020175 0.04529517 0.10333702
000350 30 20 8e 3c 7b 69 d2 3c 10 b0 20 3e 45 0a fe ba
       0.017349333 0.025685063 0.15692163 -0.0019381723
000360 3e e1 8d 3d 4d b5 6e bd 44 1b f0 bc 50 8c 1c be
       0.06927727 -0.05827837 -0.029309876 -0.152879
000370 19 a4 bc bd 47 36 58 3d ee a5 88 bd 44 e1 9f 3d
       -0.09210987 0.052786138 -0.066722736 0.07806638
000380 fa 6a 56 3e 5c e5 e0 3d 57 76 43 be 56 aa b1 bd
       0.20939246 0.10981247 -0.19088112 -0.08675067
000390 03 9c 2f 3c 94 c7 f6 3b 2a 01 1d 3a f9 02 ec bc
       0.010718348 0.007531116 0.0005989248 -0.028810011
0003a0 0a b8 54 3d 4a 2d 0c 3e c7 18 02 39 30 50 37 be
       0.051933326 0.13689151 0.00012406996 -0.17901683
0003b0 c8 dd 2a be 71 df ca bd dd 0c a4 3a 96 45 c8 bc
       -0.16686165 -0.09905899 0.0012516041 -0.024447244
0003c0 58 e0 9b bd 91 17 ed 3d 92 3e 82 bd cc 95 8d bd
       -0.076111495 0.115767606 -0.063595906 -0.06913337
0003d0 6f 58 77 be 94 2b 46 3d 97 85 56 3c e3 b9 ca 3d
       -0.24154828 0.048381403 0.013093374 0.09898736
0003e0 02 ec 08 bd 34 a2 06 3e d0 3e 8a bd 29 31 1f 3c
       -0.0334282 0.13147813 -0.06750262 0.009716311
0003f0 f2 ce 35 3d 9e 2b 13 3e 06 ae 0c 3d 2f c4 c5 bc
       0.04438681 0.14372107 0.03434565 -0.0241414
