checkpoint_dir/conv1_weights_226000.npz (npy, 6480 bytes, 1 tensors)

array f4 [5, 5, 1, 64]
00000000: 32ac 7fbc 54e4 39be 0758 0dbe df54 f53e
00000010: 5d96 89be 9f9b 4c3e 2945 d9bd ce01 bfbe
00000020: 6034 8e3e 951c b7be e89d ccbd 1c6f a03e
00000030: b12f 5dbe 2807 0ebe 0ca4 1abf a69f 0a3f
00000040: db7a 573e 53e5 953c bb78 2b3e 8fe8 f23c
00000050: ff35 4b3e 6f11 d3be 1992 8bbd 8fdb a73c
00000060: 00ae 0c3e af71 69be d1c1 0abe a36c 0abe
00000070: 099c f13e b283 db3e 15bf 413e 1479 113d
00000080: aba0 403d 083e 42bd 1806 be3e 5f82 983e
00000090: 9ce2 5abe b0b9 c93e e5d7 a4be 65a6 d1be
000000a0: 4682 adbe 3a23 1e3e 1fec c5bd 328b 89be
000000b0: c62e 24bd 3d8a 94be 502a d7bd a11d 37bf
000000c0: b4f3 ac3d e721 c6bd 90cb dbbd 17a3 c13c
000000d0: 714b 903e d715 9d3e 0ce3 a1bd 0b7a 22be
000000e0: ace1 25bf ebe2 563e d855 f6be da88 28bd
000000f0: 4a99 0a3e b9b3 aabe 38d3 c13e a084 d13e
00000100: e515 b2bd a3f6 98be 0295 a6bd 63da 813e
00000110: a37b adbd 288c 463e 2840 b83d 8362 c0be
00000120: b645 023f 7582 33be 9deb 76bc 0be3 223f
00000130: 8f09 08bf b74a c53c 3257 50bf 15ba 333f
00000140: 61f4 1f3f c7a8 153e 0ce5 c73e aae0 fabe
00000150: b4cb e1be f3b2 cbbe ae55 43be 8915 003e
00000160: b38d 9d3d 5034 cebd 147a 40bd 7473 28be
00000170: f192 1a3f 99d8 af3e 5182 a63e 38a9 42be
00000180: 88e0 553d 7055 453e 054b 0e3f 81dc 1d3f
00000190: 5de1 2bbf 8156 883e b3e9 e33d ec43 fabe
000001a0: 134e d6be 8b38 48be 53d3 98be 6e23 41be
000001b0: da1f 90bd 9da3 4dbe 456e 75bd 6679 82bf
000001c0: 0d87 5f3d 6cd2 35be 7ae9 0abf 1fea 463e
000001d0: 9ed7 183f 95e7 f9bd 9364 77be ea7e 84bd
000001e0: 8ba0 2dbf 936c 733e 53ca 27bf 9c43 5c3e
000001f0: f8ae 473e 6cde e4be 63ea 823e 2188 01bd
00000200: ad5c 1f3d 4036 85be 2987 cabd 0e6d 36be
00000210: f92f 3f3e 50dc be3b 8a7d a13e a4c1 d5be
00000220: 292b ce3e 336b 69be 16f4 7ebd a339 153f
00000230: 845d d1be d07b 123c 6efe 63bf 95d1 11be
00000240: 0e99 023f 4524 b73e 9bee e03e 5aba c5be
00000250: 0d95 69be c813 95be 3c65 92be 3a58 223e
00000260: 1fc0 8a3a 41ad d53d caa1 8a3e 9d27 f63c
00000270: 8dba f43e 44f4 46be 1569 8f3e e029 e7be
00000280: 1f50 74bd dc30 263f d7d2 1a3f b793 113f
00000290: 202b 5abf 7338 8abd 43d0 163f 3977 f8be
000002a0: 5756 efbd 3e4e cebe cd7a 35be 9da5 1fbe
000002b0: c84a 393d 851c 2e3e 7c18 10be 0952 80bf
000002c0: be43 61be c452 adbe 1185 51be 1b60 44be
000002d0: 5a75 093f bb29 d8be a581 e5be 7d9a e3bd
000002e0: 728a 03bf fbf1 963e 719e 58bf fce8 ab3e
000002f0: e302 8e3e cdef a8be 8c51 e5bd bf8d 28bf
00000300: 364c 443e a0e2 acbe 5693 303e 2655 99be
00000310: 204d 893e b3e6 2ebe 8c95 023f e33d d9be
00000320: eca1 ff3c 224f 81be 90c3 d8bd 908e da3e
00000330: e3bd 11be 94a9 fa3d 7fbe 3ebf 7a61 f2be
00000340: 9fe4 d5bd 8930 af3e 4be7 d23e a96c df3e
00000350: 62e3 a43e 63c3 b3bd c8d0 a8be ebdd 59bc
00000360: 8fae a3bd 6f4e 863e bfaf 813c b605 a63e
00000370: c4dc ec3e 9ea1 13bf 7534 b4bb a5f6 f6be
00000380: de90 19be cbc3 563f 0226 183f 7af9 9d3e
00000390: 3a23 5bbf 4578 cebd 7baa 913c 7666 efbe
000003a0: 73a5 ad3e 6298 38bd 83b5 173a 1662 4dbe
000003b0: 8c1d 07bc b59e 883e d2be b0bc e4e5 4cbf
000003c0: 0126 86be a92a 65be 93ed 263f 8eca c3be
000003d0: 7d55 f53e 0baa d4bd 4ae5 d0be f62c 7bbe
000003e0: 8d63 d5be e0c8 3e3e ab98 5dbf da7d 623d
000003f0: 9cc2 2c3e a44c 37be 6b49 08be f579 09be
-0.015605019 -0.18153507 -0.13803111 0.47916314 -0.2687253 0.1998124 -0.106088944 -0.37306064
0.27774334 -0.35763994 -0.09991056 0.3133477 -0.21600224 -0.13869917 -0.60406566 0.54149854
0.2104296 0.018297827 0.16745274 0.029651908 0.19844817 -0.41224238 -0.06814975 0.020490436
0.1373825 -0.22797273 -0.13550498 -0.13518004 0.47189358 0.42873913 0.18920548 0.03551586
0.047028225 -0.04742244 0.37114024 0.29786965 -0.21375507 0.3939948 -0.32195964 -0.4094726
-0.33888453 0.15443125 -0.09664177 -0.2686401 -0.04008367 -0.29011717 -0.10506117 -0.71529585
0.0844492 -0.09674435 -0.10732186 0.023637338 0.28182557 0.30680725 -0.07904634 -0.15866868
-0.6479747 0.20985 -0.4811237 -0.041146137 0.13535038 -0.33340243 0.3785646 0.40921497
-0.08695582 -0.2987567 -0.0813389 0.25361928 -0.084708475 0.19389403 0.08996612 -0.37575158
0.5088762 -0.17530234 -0.015070823 0.6362769 -0.53139585 0.024083478 -0.8138305 0.70205814
0.6248227 0.14615165 0.39041936 -0.4899953 -0.44100726 -0.39784965 -0.19075653 0.12508215
0.076930426 -0.100685716 -0.046991423 -0.16450292 0.60380465 0.34344938 0.325213 -0.19009864
0.052216083 0.19270873 0.5558322 0.6166459 -0.6714075 0.26628497 0.11128559 -0.48879945
-0.4185644 -0.1955282 -0.29848728 -0.18861172 -0.07037325 -0.20081945 -0.059919614 -1.0193298
0.054572154 -0.17756051 -0.54262507 0.19425248 0.59704006 -0.12202374 -0.2415946 -0.064695194
-0.67823094 0.23771887 -0.655431 0.21510166 0.19500339 -0.44700944 0.25569448 -0.031623963
0.038906742 -0.26017952 -0.09889061 -0.17815039 0.18670644 0.005824603 0.3154109 -0.417493
0.40267304 -0.227948 -0.062244497 0.5829107 -0.4089166 0.008940652 -0.89060104 -0.14240105
0.5101479 0.3576986 0.43932042 -0.38618737 -0.22810765 -0.29116654 -0.2859286 0.15853968
0.0010585821 0.10433436 0.2707656 0.030048186 0.47798577 -0.19429117 0.2800986 -0.45149136
-0.059646722 0.64918303 0.60477966 0.5686602 -0.85222054 -0.06749048 0.5891153 -0.4852846
-0.1168639 -0.4029407 -0.17722626 -0.1559052 0.045237333 0.17003067 -0.1407184 -1.0025035
-0.21998498 -0.33852208 -0.20460917 -0.19177286 0.5369469 -0.42219338 -0.44825473 -0.11113451
-0.51383126 0.2948149 -0.8461676 0.3357619 0.27736577 -0.32995453 -0.111971945 -0.6584129
0.19169697 -0.3376665 0.17243704 -0.29947776 0.26816654 -0.17080192 0.5100944 -0.42430028
0.03120514 -0.25255686 -0.105841756 0.42686892 -0.14232592 0.12239376 -0.74509424 -0.47339994
-0.10443997 0.34216717 0.41192088 0.4363759 0.3220473 -0.087775014 -0.32971787 -0.013297538
-0.07992279 0.26231715 0.015830873 0.32426232 0.4626218 -0.57668483 -0.0054994174 -0.4823505
-0.14996669 0.83892506 0.59432995 0.30854398 -0.85600626 -0.10081533 0.017781487 -0.4675786
0.3391529 -0.0450672 0.000578724 -0.20056948 -0.008246791 0.26683584 -0.021575365 -0.80038285
-0.2620087 -0.22379555 0.6520626 -0.38240474 0.47916785 -0.103839956 -0.40799934 -0.2452887
-0.41677514 0.18631315 -0.8656108 0.055295803 0.16871113 -0.1790033 -0.13309257 -0.13425429
