checkpoint_dir/conv2_weights_990000.npz (npy, 409680 bytes, 1 tensors)

array f4 [5, 5, 64, 64]
0.048733823 0.029025922 0.0010394937 0.015282059 -0.14020531 -0.08804332 -0.02360614 0.0033647048
0.039956786 -0.09074315 0.027250927 0.05207425 -0.10038523 0.03838494 0.048940822 -0.000433286
0.035913922 0.08799308 -0.089240745 0.0028371469 -0.07698528 0.086785555 0.0661249 0.08853683
-0.00721017 -0.018889055 0.04356481 0.025341492 -0.09611896 -0.06896092 -0.0499302 0.15788946
0.041122504 0.004662204 -0.029365197 -0.105023146 -0.053006556 -0.105427496 -0.054557677 -0.06571573
0.044739194 0.10478685 0.05720141 0.017763022 -0.09015349 -0.03419955 -0.04738486 0.03277436
-0.062831566 -0.054205958 -0.011082758 0.003913306 -0.06363135 0.0048258896 -0.008661989 -0.02393307
-0.014134994 0.031299584 -0.06491552 -0.06852156 -0.00024009416 -0.015834846 0.0078108357 0.02754578
-0.055329952 0.007273401 -0.0024570853 -0.037412304 -0.030803254 0.018463094 -0.022014681 -0.00023658416
-0.054109763 -0.013684959 0.0953164 0.0008872344 0.019909557 0.008197227 -0.0044901683 -0.016068436
-0.026296308 -0.09142998 0.00792267 -0.064550735 0.0707442 -0.027524792 0.04240646 0.06278128
0.0374405 0.046928495 0.03434485 -0.019210668 -0.06658023 0.062067818 0.05701342 -0.055868
0.01433162 -0.0011259001 0.033403598 -0.028458804 -0.024077486 -0.008563369 0.0018947863 -0.010942335
-0.019881442 0.016427342 -0.005361719 0.013066205 -0.0009905004 -0.047742773 -0.05885521 -0.002251289
0.004899763 -0.0026975584 0.011655213 -0.051938344 0.03292051 0.022254245 0.009191961 0.018881697
-0.017864564 -0.0088017015 -0.0630972 0.04669833 -0.08020011 0.024860673 -0.032660164 0.012731481
0.12944162 -0.017570771 -0.056687374 0.029927898 0.081278324 0.07775339 -0.017718839 0.17252387
-0.032904267 -0.012636426 -0.05223319 0.04802327 0.13525893 0.043996334 0.087450616 -0.07653192
-0.05117074 -0.039389532 -0.06489982 -0.08811764 -0.008532398 0.0067951106 0.13125087 0.13107808
-0.008609486 0.013534439 0.037728216 0.09730429 0.07438803 0.09706021 0.024731586 -0.07191319
0.015807318 0.03728959 -0.022085592 0.023874504 -0.06521145 0.060812507 -0.0030437896 0.027032228
-0.014662026 0.015920999 0.06936853 0.07296127 0.07786008 0.00632262 0.027154138 -0.0475224
0.053400338 0.041806042 0.051059138 0.04413011 -0.0037690029 -0.009888674 0.056075357 0.037310693
-0.045021147 -0.03703682 -0.019784642 0.101479195 0.09118557 0.04710955 -0.036089893 0.044491988
0.0070211533 -0.039494347 0.016833728 -0.033398036 0.08228653 0.03067479 0.025031582 -0.03376831
-0.104919 0.007654465 -2.2505666e-05 0.014984977 0.06907428 0.030482398 0.056806855 0.048092525
0.09484942 0.064630926 0.026048262 0.037274316 -0.04649989 0.061708257 0.043079413 0.0128240865
-0.014321186 -0.021640696 -0.016198726 -0.045283247 -0.047360145 0.01961882 -0.05028881 0.03823151
-0.019172894 -0.0408083 0.07263474 0.03055673 0.051919878 -0.05505846 -0.041237194 -0.03619643
0.046035275 -0.034656413 0.077549554 -0.106359355 0.014355227 -0.051182028 -0.012894406 0.02482698
0.042762794 -0.0003399943 0.028771492 -0.04174097 -0.020092096 0.028388519 -0.045082316 0.015246964
-0.023559863 -0.013312146 0.047401186 -0.022693193 -0.017535638 0.080011204 -0.035271406 -0.009798571
00000000: 1e9d 473d c5c7 ed3c 9f3f 883a 9a61 7a3c
00000010: fb91 0fbe 0e50 b4bd aa61 c1bc 6182 5c3b
00000020: baa9 233d 8bd7 b9bd 563d df3c cf4b 553d
00000030: c596 cdbd 8739 1d3d 2c76 483d aa2a e3b9
00000040: 7a1a 133d b735 b43d dac3 b6bd 6def 393b
00000050: 75aa 9dbd a0bc b13d 7e6c 873d cc52 b53d
00000060: 4a43 ecbb 38bd 9abc 0471 323d f698 cf3c
00000070: 04da c4bd 623b 8dbd 9c83 4cbd c6ad 213e
00000080: 1270 283d 67c5 983b 488f f0bc 6016 d7bd
00000090: 671d 59bd 5fea d7bd df77 5fbd f895 86bd
000000a0: 7240 373d 7d9a d63d 074c 6a3d c283 913c
000000b0: 65a2 b8bd d414 0cbd a116 42bd 683e 063d
000000c0: d6ad 80bd 1107 5ebd 7594 35bc 313b 803b
000000d0: 2751 82bd 7f22 9e3b 04eb 0dbc 490f c4bc
000000e0: 7696 67bc fe33 003d 6ef2 84bd 0855 8cbd
000000f0: c9c1 7bb9 14b8 81bc 0af2 ff3b b0a7 e13c
00000100: a9a1 62bd b655 ee3b 0d07 21bb a53d 19bd
00000110: 1b57 fcbc ea3f 973c 2258 b4bc 9413 78b9
00000120: 33a2 5dbd e136 60bc 3f35 c33d 4b95 683a
00000130: 5e19 a33c a94d 063c 4322 93bb f4a1 83bc
00000140: 5b6b d7bc a43f bbbd 16ce 013c 2d33 84bd
00000150: 56e2 903d ac7b e1bc 65b2 2d3d 7993 803d
00000160: 365b 193d 1838 403d 2fad 0c3d b15f 9dbc
00000170: 375b 88bd d33a 7e3d e786 693d d8d5 64bd
00000180: 2ccf 6a3c f092 93ba 36d2 083d 7022 e9bc
00000190: 263e c5bc 5f4d 0cbc 7a5a f83a 7b47 33bc
000001a0: 68de a2bc a292 863c 5cb1 afbb a313 563c
000001b0: aed3 81ba ed8d 43bd 2912 71bd 5d8a 13bb
000001c0: 318e a03b 85c9 30bb 82f5 3e3c 4dbd 54bd
000001d0: a8d7 063d 894e b63c e199 163c caad 9a3c
000001e0: b558 92bc 0335 10bc 1b39 81bd c046 3f3d
000001f0: f53f a4bd 9ca8 cb3c aac6 05bd b497 503c
00000200: 588c 043e 94f0 8fbc 0531 68bd 5a2b f53c
00000210: 4075 a63d 2b3d 9f3d 1927 91bc 19aa 303e
00000220: a0c6 06bd 0309 4fbc 78f2 55bd 0cb4 443d
00000230: 5181 0a3e 8035 343d 4f19 b33d c4bc 9cbd
00000240: 6998 51bd eb56 21bd 32ea 84bd 0577 b4bd
00000250: 79cb 0bbc 85a9 de3b a166 063e 5539 063e
00000260: cd0e 0dbc 8dbf 5d3c e788 1a3d 7947 c73d
00000270: c058 983d 81c7 c63d e599 ca3c 3947 93bd
00000280: 597e 813c f8bc 183d d8ec b4bc 7794 c33c
00000290: 958d 85bd 8916 793d 517a 47bb b172 dd3c
000002a0: ff38 70bc c16c 823c 1611 8e3d b86c 953d
000002b0: 1b75 9f3d fb2d cf3b 5b72 de3c d9a6 42bd
000002c0: 50ba 5a3d d03c 2b3d 6323 513d c6c1 343d
000002d0: 6001 77bb 1b04 22bc 46af 653d 19d3 183d
000002e0: 1868 38bd ecb3 17bd 6713 a2bc 53d4 cf3d
000002f0: 80bf ba3d f2f5 403d ffd2 13bd 3b3d 363d
00000300: b411 e63b d3c4 21bd e3e6 893c 61cc 08bd
00000310: d785 a83d b249 fb3c 080f cd3c a450 0abd
00000320: c6df d6bd 4ed2 fa3b 8dca bcb7 8d83 753c
00000330: d176 8d3d 39b6 f93c 4eae 683d abfc 443d
00000340: 6a40 c23d 385d 843d 2a63 d53c f4ac 183d
00000350: ab76 3ebd ccc1 7c3d 0a74 303d 1e1c 523c
00000360: 68a3 6abc d447 b1bc 31b3 84bc ed7a 39bd
00000370: b6fc 41bd a6b7 a03c a4fb 4dbd a598 1c3d
00000380: 7910 9dbc 9b26 27bd 86c1 943d 1c52 fa3c
00000390: f0a9 543d fb84 61bd 55e8 28bd b542 14bd
000003a0: 7c8f 3c3d e2f3 0dbd 4dd2 9e3d efd2 d9bd
000003b0: 3032 6b3c 3fa4 51bd 0f43 53bc f361 cb3c
000003c0: 0a28 2f3d 4341 b2b9 31b2 eb3c 94f8 2abd
000003d0: 2e98 a4bc 0a8f e83c 3ca8 38bd 67ce 793c
000003e0: 9d00 c1bc 301b 5abc bf27 423d 13e7 b9bc
000003f0: e6a6 8fbc eadc a33d c078 10bd 2f8a 20bc
