checkpoint_dir/conv2_weights_227000.npz (npy, 409680 bytes, 1 tensors)

array f4 [5, 5, 64, 64]
-0.08139249 -0.006530337 -0.0022975765 0.02817462 -0.03157613 -0.09247441 0.10343001 0.016853608
0.05895604 -0.04000775 0.04284386 0.021848636 -0.0005220462 -0.02215492 0.065647066 -0.031875834
0.030625647 -0.032463275 0.10095952 -0.07167974 -0.022623114 -0.01861704 0.12522034 -0.008906417
0.068192646 -0.012134888 -0.018094255 -0.06050974 -0.032660566 -0.052943494 -0.034938775 -0.045766443
0.12332336 0.08870721 -0.04123367 0.05329695 -0.055372518 -0.07804265 -0.0106750615 0.009736943
-0.10441229 -0.04067383 0.051816344 0.031391233 0.08394485 0.024398508 0.027601127 -0.06284545
-0.0024864394 0.009213082 -0.01989242 -0.020099279 -0.029046185 0.0074137244 0.004102564 -0.021008886
0.038308747 0.033072114 0.092371 0.009465737 0.07739528 -0.0217011 0.02869785 0.014929202
-0.02126753 -0.08040286 -0.013309045 0.048955522 -0.030797573 -0.062258765 0.028052488 0.061179593
0.026148457 0.029152641 -0.007964351 -0.037895612 -0.020460466 -0.030556051 0.040321868 0.006438579
0.08180218 -0.08386577 -0.027875423 -0.089501455 0.031220596 0.04229734 0.033524785 -0.050423976
0.0052300747 -0.009270893 0.045542464 0.073225 0.037634697 -0.012699006 0.04355514 0.00046511486
0.059814233 -0.09834744 -0.00679779 0.02536897 0.015280198 0.0803625 0.07651379 -0.05604458
0.009483973 0.025075516 -0.047283113 -0.045143515 -0.041985046 -0.0426407 0.011895758 -0.029123824
-0.044699907 -0.08073058 0.03391849 0.019244062 0.023140745 -0.03137853 0.047537707 -0.03901029
-0.0008123724 0.0071925246 0.008380666 -0.06566485 0.1497062 -0.01660714 -0.01645436 -0.045766868
-0.052213974 0.03839835 0.08494266 -0.06858836 -0.068889596 0.050722983 0.059457604 0.05143813
-0.015889104 0.1387624 0.04686138 -0.06729097 -0.003729633 0.033288326 0.055686463 -0.017376143
-0.018297981 0.0966033 -0.055107854 0.05392643 0.0011799309 0.03612647 0.11027472 -0.033234805
0.124053515 0.10321943 -0.069437906 0.02250853 0.038266912 -0.002934902 0.09460826 0.034549452
0.047681388 0.040478285 -0.07225257 0.051592026 -0.06508031 0.17150639 0.075611606 -0.10330174
-0.06340735 0.047317978 -0.0073757744 -0.020320376 -0.10152498 0.11494259 -0.019358415 -0.04725828
0.05768664 -0.009261685 -0.04974101 0.014964673 -0.06072488 -0.024393672 -0.020967096 0.04951299
0.02904915 0.07452966 0.011701623 0.0023373747 -0.083554 -0.031021636 0.06820742 -0.024483912
0.12701118 0.0036857228 -0.033346567 -0.0032048027 0.12234931 0.002834153 0.025592864 -0.046280816
0.036979616 0.015783913 0.04474059 0.045167483 -0.03795032 -0.0033213918 0.008945518 0.05251735
0.024053413 0.012803912 -0.04382658 0.054687716 -0.06660052 0.0045186696 0.116050735 -0.026561685
-0.022579718 0.037850235 -0.09429175 0.12810636 0.075178854 0.036747657 0.07573515 0.021028712
-0.0455897 -0.054176107 -0.041311793 0.012609174 0.03791314 0.0210219 -0.009313793 -0.0036810047
-0.07646566 -0.06512102 -0.015840244 0.06565001 0.12729864 -0.04647805 0.028454548 0.040350344
-0.06497846 0.0931234 0.040955648 0.028888563 0.064924054 -0.0056956555 0.008231875 0.0026342687
0.043661032 0.015410419 0.0033587727 0.048412852 0.044654824 0.09463706 -0.039859675 -0.08150225
00000000: 1bb1 a6bd 70fc d5bb f092 16bb 76ce e63c
00000010: f955 01bd 3963 bdbd 1dd3 d33d 9410 8a3c
00000020: e37b 713d 2bdf 23bd 0b7d 2f3d e9fb b23c
00000030: edd9 08ba 3c7e b5bc f871 863d 3c90 02bd
00000040: a3e2 fa3c 36f8 04bd ddc3 ce3d d4cc 92bd
00000050: 1c54 b9bc c382 98bc c339 003e 38ec 11bc
00000060: 96a8 8b3d 69d1 46bc 673a 94bc 10d9 77bd
00000070: 16c7 05bd 47db 58bd f61b 0fbd 9875 3bbd
00000080: f590 fc3d 20ac b53d a3e4 28bd e74d 5a3d
00000090: 4bce 62bd d3d4 9fbd 74e6 2ebc b387 1f3c
000000a0: 1cd6 d5bd 9a99 26bd 603d 543d 1894 003d
000000b0: 47eb ab3d 61df c73c c21b e23c 1eb5 80bd
000000c0: 88f3 22bb 77f2 163c 6ef5 a2bc 3ea7 a4bc
000000d0: 44f2 edbc d4ee f23b cd6e 863b d41a acbc
000000e0: a2e9 1c3d a076 073d 022d bd3d 2e16 1b3c
000000f0: 6b81 9e3d 81c6 b1bc c117 eb3c 9d99 743c
00000100: 3e39 aebc 41aa a4bd 2e0e 5abc 9685 483d
00000110: 314b fcbc 0c03 7fbd 55ce e53c 7497 7a3d
00000120: 4a35 d63c 85d1 ee3c e97c 02bc 6e38 1bbd
00000130: b59c a7bc af50 fabc 8b28 253d b7fa d23b
00000140: e787 a73d d1c1 abbd 005b e4bc 8a4c b7bd
00000150: 56c2 ff3c fa3f 2d3d 4951 093d 5f89 4ebd
00000160: 0c61 ab3b f2e4 17bc bc8a 3a3d fdf6 953d
00000170: d726 1a3d 7e0f 50bc e066 323d a9da f339
00000180: c5ff 743d 626a c9bd ffbf debb 96d2 cf3c
00000190: cc59 7a3c 1895 a43d 43b3 9c3d 008f 65bd
000001a0: aa62 1b3c 2b6b cd3c f0ab 41bd 68e8 38bd
000001b0: 83f8 2bbd 04a8 2ebd 6de6 423c 1695 eebc
000001c0: 4017 37bd 1356 a5bd 1dee 0a3d b9a5 9d3c
000001d0: a991 bd3c c686 00bd e6b6 423d 41c9 1fbd
000001e0: 64f5 54ba 45af eb3b 104f 093c 4b7b 86bd
000001f0: 954c 193e b20b 88bc 4bcb 86bc 0a76 3bbd
00000200: 52de 55bd 9747 1d3d 6bf6 ad3d 0e78 8cbd
00000210: fd15 8dbd e7c2 4f3d d189 733d cab0 523d
00000220: de29 82bc bb17 0e3e b8f1 3f3d d9cf 89bd
00000230: dc6c 74bb 5759 083d 7d17 643d 6a58 8ebc
00000240: a6e5 95bc f3d7 c53d c6b8 61bd f6e1 5c3d
00000250: e9a7 9a3a 59f9 133d b6d7 e13d 3821 08bd
00000260: c50f fe3d b564 d33d 7635 8ebd cf63 b83c
00000270: c4bd 1c3d 7c57 40bb fac1 c13d ba83 0d3d
00000280: 8f4d 433d 8fcc 253d 28f9 93bd 2952 533d
00000290: d348 85bd 5f9f 2f3e 42da 9a3d dd8f d3bd
000002a0: b6db 81bd 7fd0 413d 7bb0 f1bb eb76 a6bc
000002b0: 54ec cfbd 0567 eb3d 8a95 9ebc e691 41bd
000002c0: d448 6c3d 53be 17bc 3bbd 4bbd 632e 753c
000002d0: a7ba 78bd 3dd5 c7bc 30c3 abbc 22ce 4a3d
000002e0: 7cf8 ed3c 02a3 983d 2ab8 3f3c a42e 193b
000002f0: 5c1e abbd 1621 febc 55b0 8b3d 7c92 c8bc
00000300: 380f 023e 2b8c 713b 6996 08bd ab07 52bb
00000310: 4692 fa3d 32bd 393b 20a8 d13c f490 3dbd
00000320: f077 173d 444d 813c e941 373d 8a01 393d
00000330: cb71 1bbd b5ab 59bb 3990 123c 6f1c 573d
00000340: aa0b c53c 80c7 513c 8083 33bd 3a00 603d
00000350: da65 88bd 5911 943b 02ac ed3d e497 d9bc
00000360: 1af9 b8bc d908 1b3d 081c c1bd 502e 033e
00000370: 5ff7 993d b684 163d 081b 9b3d 6844 ac3c
00000380: 44bc 3abd c4e7 5dbd 8e36 29bd b596 4e3c
00000390: cf4a 1b3d 1f36 ac3c e198 18bc 033d 71bb
000003a0: 079a 9cbd 2b5e 85bd 66c3 81bc 8373 863d
000003b0: 935a 023e c55f 3ebd 8319 e93c 6746 253d
000003c0: 6d13 85bd 7bb7 be3d 1cc1 273d b5a7 ec3c
000003d0: e7f6 843d 9fa2 babb fcde 063c b2a3 2c3b
000003e0: e9d5 323d fb7b 7c3c db1e 5c3b 8e4c 463d
000003f0: fae7 363d 13d1 c13d e643 23bd a7ea a6bd
