checkpoint_dir/conv2_weights_225000.npz (npy, 409680 bytes, 1 tensors)

array f4 [5, 5, 64, 64]
00000000: bac0 a6bd 0220 d5bb 223f 16bb 4f6c e63c
00000010: 782a 01bd 4575 bdbd 7cc9 d33d 06c5 893c
00000020: e18a 713d 78e3 23bd 166e 2f3d 5dad b23c
00000030: c44d 0fba 81be b5bc f762 863d 188c 02bd
00000040: 6f2e fa3c 25ef 04bd bb68 ce3d acb9 92bd
00000050: 5452 b9bc e834 98bc fd26 003e da91 11bc
00000060: 269a 8b3d 2156 47bc cdfe 93bc d3b1 77bd
00000070: 0b1e 06bd abc9 58bd 2248 0fbd 9363 3bbd
00000080: e35c fc3d b682 b53d 0feb 28bd c7b4 593d
00000090: 9fcc 62bd e0c3 9fbd 6be8 2ebc 028e 1e3c
000000a0: 8ac2 d5bd 44c5 26bd 151d 543d 3a6f 003d
000000b0: f9eb ab3d d620 c83c 960e e23c 87aa 80bd
000000c0: fe5f 26bb df37 173c 1a34 a3bc d5c4 a4bc
000000d0: cbb3 edbc 09bb ee3b fae9 873b 5b62 acbc
000000e0: 76ce 1c3d 9179 073d 2b34 bd3d 289c 1a3c
000000f0: ae26 9e3d dad2 b1bc 3733 eb3c c8c3 733c
00000100: b025 aebc 59b4 a4bd ba87 5abc 3d6b 483d
00000110: bd4c fcbc c009 7fbd c7e9 e53c 8387 7a3d
00000120: 57ee d53c f3d3 ee3c fd8a 02bc 1b1c 1bbd
00000130: 6e93 a7bc 6abd fabc 2aed 243d 2e3e d33b
00000140: 6072 a73d 15c4 abbd 9335 e4bc c148 b7bd
00000150: 0bb4 ff3c 2360 2d3d 2568 093d 8e6e 4ebd
00000160: 9e0b a93b 1021 18bc d46f 3a3d d602 963d
00000170: 1b01 1a3d f862 50bc 0144 323d cc26 f439
00000180: 8b12 753d 9b61 c9bd 6648 debb 7c54 cf3c
00000190: f151 7a3c 868e a43d 58b3 9c3d a7b0 65bd
000001a0: ce5f 1b3c 6984 cd3c cac0 41bd 1509 39bd
000001b0: 15f8 2bbd c39f 2ebd 2f2b 423c 9f61 eebc
000001c0: 1c60 37bd 1e54 a5bd f8d8 0a3d 85af 9d3c
000001d0: 6e47 bd3c b794 00bd d1ca 423d f0d8 1fbd
000001e0: b393 53ba ffaf ec3b 938a 093c 6b7b 86bd
000001f0: 4a2d 193e 6a31 88bc ead3 86bc d58c 3bbd
00000200: abda 55bd 751e 1d3d 0f03 ae3d 1165 8cbd
00000210: 9b0f 8dbd 54b6 4f3d c9c8 733d 3e23 523d
00000220: f9be 82bc 8f19 0e3e e2ce 3f3d 3cba 89bd
00000230: 946f 75bb 5ba8 073d d6e9 633d 520b 8ebc
00000240: 09b7 96bc 39dd c53d 5bdc 61bd babe 5c3d
00000250: 908f 913a c938 143d a1a9 e13d 5200 08bd
00000260: f9ca fd3d b015 d33d e92d 8ebd 88fa b83c
00000270: df43 1c3d 435e 44bb 2582 c13d 1769 0d3d
00000280: 2df8 423d 3462 253d cafd 93bd 3380 523d
00000290: 6f3b 85bd 7b99 2f3e ea06 9b3d 4da1 d3bd
000002a0: 9fde 81bd 659d 413d 2e9b f0bb d05d a6bc
000002b0: 710a d0bd a959 eb3d 44e6 9ebc 1a7d 41bd
000002c0: 5be8 6b3d 1850 17bc 59d9 4bbd 09b0 733c
000002d0: 0404 79bd db2a c8bc 3d69 abbc 6075 4a3d
000002e0: 6f35 ee3c 6ed9 983d 68ad 403c 53ce 153b
000002f0: d44a abbd b5a6 febc e5a6 8b3d 63b4 c8bc
00000300: c303 023e 9fae 6e3b 61b4 08bd 7118 4ebb
00000310: 7986 fa3d 2ed1 383b bda0 d13c 90bd 3dbd
00000320: d248 173d 2e82 813c 5443 373d 362c 393d
00000330: eb6e 1bbd 19c6 5abb a7d9 123c 5f3a 573d
00000340: f21a c53c 4f26 523c fe60 33bd acd0 5f3d
00000350: 0282 88bd b52b 933b 829a ed3d abc8 d9bc
00000360: 06e6 b8bc b431 1b3d 1414 c1bd 9f2a 033e
00000370: 75da 993d f128 163d b5fd 9a3d 0ee4 ab3c
00000380: e8b5 3abd b929 5ebd c38e 29bd 5356 4e3c
00000390: 0c73 1b3d e088 ab3c 2686 17bc 212c 72bb
000003a0: da86 9cbd 8d48 85bd b307 82bc e871 863d
000003b0: 2744 023e 7034 3ebd 015c e93c 056b 253d
000003c0: 4ff5 84bd 61ac be3d 8cec 273d 2643 ec3c
000003d0: d0d6 843d aabd bcbb 381b 063c 8091 2c3b
000003e0: 97c4 323d f1b2 7b3c 02f5 5d3b b6ba 453d
000003f0: be32 373d e6b2 c13d 7748 23bd 24e6 a6bd
-0.081422284 -0.00650406 -0.0022925814 0.028127817 -0.031534642 -0.09250883 0.103411645 0.01681758
0.058970336 -0.040011853 0.042829596 0.021811182 -0.0005466605 -0.022185566 0.06561845 -0.031871885
0.03053972 -0.03245463 0.100785695 -0.0716432 -0.022622265 -0.018579915 0.12514873 -0.008884871
0.06816511 -0.012166531 -0.018065834 -0.06047232 -0.032743495 -0.0529267 -0.0349809 -0.04574926
0.12322404 0.08862822 -0.041239794 0.05315092 -0.055370923 -0.07801032 -0.01067553 0.009677412
-0.10437496 -0.04071547 0.051785547 0.031356074 0.083946176 0.02442972 0.027594846 -0.062825255
-0.0025386806 0.009229629 -0.019922305 -0.020113388 -0.029016396 0.00728548 0.004147765 -0.021042993
0.038282834 0.03307492 0.09238466 0.009436645 0.07722221 -0.021706987 0.028710945 0.014878221
-0.021258205 -0.08042211 -0.013338024 0.048930395 -0.03079831 -0.062265158 0.028065575 0.06116439
0.026114626 0.0291538 -0.007967708 -0.0378686 -0.020456042 -0.030607898 0.04026524 0.0064466214
0.08176112 -0.08387009 -0.027857577 -0.089494236 0.03121378 0.04232801 0.033546586 -0.050398402
0.0051588556 -0.009285226 0.045516804 0.0732476 0.03759871 -0.0127189085 0.043521885 0.00046568213
0.059832137 -0.0983307 -0.006783533 0.02530884 0.015278325 0.08034997 0.076513946 -0.056076672
0.009483291 0.025087552 -0.047303 -0.045174677 -0.041984636 -0.04263283 0.011851116 -0.029099284
-0.04476939 -0.08072685 0.033898324 0.019248733 0.02310535 -0.031391826 0.047556702 -0.039025247
-0.000807102 0.007223129 0.008394855 -0.06566509 0.14958683 -0.016625125 -0.01645847 -0.045788605
-0.05221049 0.038359124 0.08496677 -0.068552144 -0.06887742 0.05071099 0.059517656 0.05130314
-0.015960203 0.13876937 0.04682816 -0.067249745 -0.003745054 0.03311954 0.055642925 -0.017339382
-0.018397825 0.096613355 -0.055141788 0.05389283 0.0011105407 0.036186967 0.11018682 -0.03320343
0.123922296 0.10306871 -0.069423504 0.0225804 0.038150664 -0.002996341 0.09448651 0.03452405
0.04759996 0.040376857 -0.07226141 0.05139179 -0.06505477 0.17148392 0.07569678 -0.103335
-0.0634129 0.047269244 -0.0073427176 -0.020308405 -0.101582415 0.11491711 -0.019396909 -0.047238447
0.05759464 -0.009235404 -0.049767826 0.014873513 -0.060794845 -0.024434498 -0.020924205 0.049428344
0.029078213 0.074633464 0.011760093 0.0022858575 -0.08363882 -0.031085351 0.06818942 -0.024500078
0.12696747 0.003642 -0.033375148 -0.0031447674 0.1223268 0.0028200853 0.025589341 -0.04632336
0.03693468 0.015809145 0.044741943 0.04520818 -0.037947576 -0.0033382236 0.008963025 0.0525459
0.0240607 0.012826516 -0.04379367 0.054642364 -0.06665422 0.0044912943 0.11601736 -0.026584944
-0.022570621 0.037889197 -0.09427658 0.12809227 0.075123705 0.03666014 0.07567922 0.020982768
-0.045583636 -0.05423901 -0.041395914 0.0125938235 0.037951514 0.02093929 -0.009248292 -0.0036952572
-0.076429084 -0.065079786 -0.015872812 0.06564695 0.1272131 -0.046436727 0.028486254 0.040385265
-0.064921014 0.093102224 0.040997073 0.028840613 0.06486285 -0.0057599144 0.0081852 0.0026331842
0.043644514 0.015362487 0.003386796 0.048273765 0.044726126 0.0945795 -0.03986403 -0.081493646
