checkpoint_dir/conv1_weights_225000.npz (npy, 6480 bytes, 1 tensors)

array f4 [5, 5, 1, 64]
-0.015575654 -0.18144862 -0.13806772 0.47898668 -0.26864794 0.1997571 -0.106173865 -0.37284407
0.27762493 -0.35750926 -0.09987115 0.31318238 -0.21580498 -0.13874294 -0.6038877 0.54128504
0.21031271 0.018346867 0.16737862 0.02961591 0.19839446 -0.4121221 -0.06815881 0.020407276
0.13733037 -0.2279531 -0.13548021 -0.13514894 0.47176805 0.42842627 0.18913724 0.035371307
0.046946563 -0.047413807 0.37098062 0.29776385 -0.2136834 0.39389598 -0.32180792 -0.409349
-0.3387591 0.15437728 -0.09665849 -0.26856828 -0.040027626 -0.28999954 -0.10498491 -0.7149514
0.08449347 -0.09668162 -0.10724806 0.023563197 0.2817896 0.30668178 -0.07900255 -0.15870085
-0.6476937 0.20983066 -0.48095852 -0.041131917 0.13525824 -0.3334527 0.37843928 0.4089746
-0.086893916 -0.29867393 -0.0813802 0.25347522 -0.084670246 0.19391133 0.08984138 -0.37552002
0.50868624 -0.17519882 -0.015078579 0.63597554 -0.5310994 0.023986759 -0.8135265 0.7017765
0.6245436 0.14608575 0.39028782 -0.489873 -0.44084215 -0.39773455 -0.19066742 0.12498757
0.07689196 -0.10069165 -0.046973016 -0.16442744 0.6036217 0.34315866 0.32509488 -0.19016084
0.052148473 0.19269492 0.5555887 0.61646557 -0.6711914 0.26616555 0.11123886 -0.48860055
-0.4182942 -0.19546857 -0.29843822 -0.18852144 -0.07037441 -0.20069803 -0.059845924 -1.0189086
0.05460618 -0.17745031 -0.542375 0.19416668 0.5969142 -0.1220228 -0.24147753 -0.064740166
-0.67791605 0.23766461 -0.65515804 0.21497992 0.19481906 -0.4470282 0.25563025 -0.031703915
0.038874898 -0.26009956 -0.09898215 -0.17811216 0.18658678 0.005884505 0.31520125 -0.41725498
0.4024858 -0.22787638 -0.062248386 0.58261365 -0.4086955 0.008827586 -0.8902569 -0.14237115
0.5099566 0.35751075 0.4391237 -0.38603735 -0.2279871 -0.2911326 -0.2858079 0.1584409
0.0010572209 0.10426587 0.27069795 0.030057011 0.47774452 -0.19429426 0.27997884 -0.451394
-0.059607714 0.6490355 0.6044735 0.5684471 -0.8519494 -0.06757891 0.58881795 -0.48506862
-0.11677772 -0.40281013 -0.17717573 -0.15582316 0.045168225 0.16994892 -0.1406584 -1.0021102
-0.21994153 -0.33838078 -0.2043866 -0.1917232 0.53676015 -0.42207664 -0.4481176 -0.11117491
-0.5135986 0.2947372 -0.84586024 0.33560422 0.27715063 -0.33004767 -0.11191924 -0.6581596
0.191549 -0.33759862 0.17232917 -0.29934895 0.26795495 -0.17069091 0.50984925 -0.42408258
0.03117753 -0.2524839 -0.10583784 0.42673478 -0.14231952 0.1223176 -0.7447708 -0.47318447
-0.104398064 0.34205836 0.41174492 0.4362479 0.32193282 -0.08780154 -0.32960123 -0.013366886
-0.07989756 0.2621768 0.01580017 0.32416284 0.4624193 -0.57646674 -0.005582272 -0.48219204
-0.14987038 0.8386308 0.5941361 0.3083776 -0.8557335 -0.10082246 0.01756903 -0.46737364
0.3389377 -0.044995274 0.0006053263 -0.20047648 -0.008278765 0.26664394 -0.02152365 -0.80007327
-0.26192877 -0.22364601 0.65193594 -0.38225105 0.47902557 -0.103837244 -0.4078588 -0.24531761
-0.41657695 0.18624498 -0.86529595 0.05527065 0.16851242 -0.17910889 -0.13301386 -0.13407896
00000000: 0731 7fbc abcd 39be a061 0dbe be3d f53e
00000010: 398c 89be 208d 4c3e af71 d9bd 6be5 bebe
00000020: db24 8e3e 740b b7be 3f89 ccbd 7159 a03e
00000030: fbfb 5cbe a112 0ebe 6298 1abf a891 0a3f
00000040: 375c 573e 2b4c 963c 4d65 2b3e 119d f23c
00000050: eb27 4b3e ab01 d3be d996 8bbd 292d a73c
00000060: 55a0 0c3e 8a6c 69be 53bb 0abe 7c64 0abe
00000070: 958b f13e b05a db3e 31ad 413e 81e1 103d
00000080: 0a4b 403d fb34 42bd 2cf1 bd3e 8174 983e
00000090: d2cf 5abe bcac c93e 02c4 a4be 3196 d1be
000000a0: d571 adbe 1415 1e3e e3f4 c5bd c881 89be
000000b0: 02f4 23bd d27a 94be 5402 d7bd 0e07 37bf
000000c0: ea0a ad3d 0301 c6bd dfa4 dbbd 9b07 c13c
000000d0: ba46 903e 6505 9d3e 17cc a1bd 7a82 22be
000000e0: 41cf 25bf d9dd 563e 3240 f6be f179 28bd
000000f0: 2381 0a3e 50ba aabe cbc2 c13e 1e65 d13e
00000100: 70f5 b1bd caeb 98be aaaa a6bd 81c7 813e
00000110: 9867 adbd b190 463e c2fe b73d 2944 c0be
00000120: 4339 023f 5267 33be 250c 77bc 4bcf 223f
00000130: 21f6 07bf e17f c43c 4643 50bf a0a7 333f
00000140: 17e2 1f3f 8197 153e ced3 c73e a2d0 fabe
00000150: 10b6 e1be dda3 cbbe 523e 43be 7cf9 ff3d
00000160: 8879 9d3d 6c37 cebd c766 40bd ab5f 28be
00000170: f486 1a3f 7eb2 af3e d672 a63e 86b9 42be
00000180: a399 553d d151 453e 103b 0e3f b0d0 1d3f
00000190: 33d3 2bbf da46 883e 33d1 e33d da29 fabe
000001a0: a82a d6be ea28 48be e5cc 98be c40b 41be
000001b0: 7520 90bd c983 4dbe 0021 75bd 996b 82bf
000001c0: bbaa 5f3d 89b5 35be 17d9 0abf a1d3 463e
000001d0: 5ecf 183f 17e7 f9bd e345 77be 7e96 84bd
000001e0: e88b 2dbf 5a5e 733e 70b8 27bf b223 5c3e
000001f0: a67e 473e e1e0 e4be f8e1 823e f7db 01bd
00000200: 493b 1f3d c52b 85be 27b7 cabd 0963 36be
00000210: 9b10 3f3e ced2 c03b 0f62 a13e 72a2 d5be
00000220: 9e12 ce3e 6d58 69be 2af8 7ebd 2b26 153f
00000230: 8940 d1be 94a1 103c e0e7 63bf bec9 11be
00000240: 848c 023f a60b b73e d2d4 e03e b0a6 c5be
00000250: 7375 69be 550f 95be 6a55 92be 553e 223e
00000260: 7292 8a3a 5889 d53d ec98 8a3e 1f3a f63c
00000270: ee9a f43e 13f5 46be 6359 8f3e 1d1d e7be
00000280: 3827 74bd 3127 263f c6be 1a3f c085 113f
00000290: 5b19 5abf d066 8abd c6bc 163f ea5a f8be
000002a0: 2829 efbd 213d cebe 8e6d 35be 1b90 1fbe
000002b0: 5102 393d 1707 2e3e c108 10be 2645 80bf
000002c0: 5a38 61be 3f40 adbe b94a 51be 1653 44be
000002d0: 1d69 093f 6e1a d8be ac6f e5be acaf e3bd
000002e0: 337b 03bf cbe7 963e 4c8a 58bf 51d4 ab3e
000002f0: b0e6 8d3e 02fc a8be ea35 e5bd 267d 28bf
00000300: 6c25 443e bad9 acbe 0f77 303e 4444 99be
00000310: 6431 893e 99c9 2ebe 7b85 023f 5a21 d9be
00000320: 0568 ff3c 9245 81be 82c1 d8bd fb7c da3e
00000330: 35bc 11be a681 fa3d 4da9 3ebf 3c45 f2be
00000340: a7ce d5bd 4622 af3e 3bd0 d23e e25b df3e
00000350: 61d4 a43e 4bd1 b3bd 7ec1 a8be c900 5bbc
00000360: 55a1 a3bd 0a3c 863e 5c6f 813c acf8 a53e
00000370: 39c2 ec3e 5393 13bf 7eeb b6bb e0e1 f6be
00000380: 9f77 19be 82b0 563f 4e19 183f abe3 9d3e
00000390: 5a11 5bbf 027c cebd edec 8f3c 994b efbe
000003a0: 3e89 ad3e f74c 38bd c3ae 1e3a b549 4dbe
000003b0: a8a3 07bc 8e85 883e 5e52 b0bc 9ad1 4cbf
000003c0: 871b 86be 7603 65be 46e5 263f 69b6 c3be
000003d0: d742 f53e 9fa8 d4bd ded2 d0be 8a34 7bbe
000003e0: 9349 d5be 01b7 3e3e 0984 5dbf 7a63 623d
000003f0: 858e 2c3e 5268 37be c934 08be ff4b 09be
